…
2025-12-12 15:48:22 | INFO | Train: RMSE 84.563 ± 0.374 | MAE 49.839 ± 0.205 | R2 0.93 ± 0.00 | MARE 32779.336 ± 1876.556 | A20 0.70 ± 0.00
2025-12-12 15:48:22 | INFO | Valid: RMSE 97.984 ± 0.542 | MAE 56.247 ± 0.266 | R2 0.91 ± 0.00 | MARE 1.136 ± 0.103 | A20 0.68 ± 0.01
2025-12-12 15:48:22 | INFO | Test : RMSE 89.885 ± 0.486 | MAE 53.542 ± 0.258 | R2 0.92 ± 0.00 | MARE 4.764 ± 0.325 | A20 0.66 ± 0.01
2025-12-12 15:48:23 | INFO | NNConvModel(
  (dropout1): Dropout(p=0.2, inplace=False)
  (dropout2): Dropout(p=0.3, inplace=False)
  (conv_layers): ModuleList(
    (0): NNConv(11, 256, aggr=mean, nn=Sequential(
      (0): Linear(in_features=8, out_features=64, bias=True)
      (1): ReLU()
      (2): Linear(in_features=64, out_features=2816, bias=True)
    ))
    (1): NNConv(256, 512, aggr=mean, nn=Sequential(
      (0): Linear(in_features=8, out_features=128, bias=True)
      (1): ReLU()
      (2): Linear(in_features=128, out_features=131072, bias=True)
    ))
    (2): NNConv(512, 512, aggr=mean, nn=Sequential(
      (0): Linear(in_features=8, out_features=128, bias=True)
      (1): ReLU()
      (2): Linear(in_features=128, out_features=262144, bias=True)
    ))
    (3): NNConv(512, 256, aggr=mean, nn=Sequential(
      (0): Linear(in_features=8, out_features=64, bias=True)
      (1): ReLU()
      (2): Linear(in_features=64, out_features=131072, bias=True)
    ))
  )
  (norm_layers): ModuleList(
    (0): GraphNorm(256)
    (1-2): 2 x GraphNorm(512)
    (3): GraphNorm(256)
  )
  (linears): ModuleList(
    (0): Linear(in_features=267, out_features=256, bias=True)
    (1): Linear(in_features=256, out_features=128, bias=True)
  )
  (linear_norms): ModuleList(
    (0): LayerNorm(256, affine=True, mode=graph)
    (1): LayerNorm(128, affine=True, mode=graph)
  )
  (out): Linear(in_features=128, out_features=1, bias=True)
)
2025-12-12 15:48:23 | INFO | 

2025-12-12 15:48:23 | INFO | 

2025-12-12 15:48:23 | INFO | Architecture: NNConv, POOLING_METHOD: attention
2025-12-12 15:48:31 | INFO | Epoch 1 | Train Loss 0.707 | Train MAE 0.536 | Train R2 0.12 || Val Loss 0.414 | Val MAE 0.292 | Val R2 0.71
2025-12-12 15:49:31 | INFO | Epoch 10 | Train Loss 0.262 | Train MAE 0.186 | Train R2 0.89 || Val Loss 0.224 | Val MAE 0.158 | Val R2 0.92
…
Final evaluation for Model NNConv-attention (test_on_original_data=True)
2025-12-12 16:03:00 | INFO | Train: RMSE 78.791 ± 0.198 | MAE 45.370 ± 0.069 | R2 0.94 ± 0.00 | MARE 16240.611 ± 1787.784 | A20 0.74 ± 0.00
2025-12-12 16:03:00 | INFO | Valid: RMSE 100.690 ± 0.603 | MAE 56.072 ± 0.326 | R2 0.90 ± 0.00 | MARE 1.523 ± 0.133 | A20 0.69 ± 0.00
2025-12-12 16:03:00 | INFO | Test : RMSE 87.191 ± 0.618 | MAE 51.279 ± 0.306 | R2 0.92 ± 0.00 | MARE 3.206 ± 0.250 | A20 0.67 ± 0.01
2025-12-12 16:03:03 | INFO | NNConvModel(
  (dropout1): Dropout(p=0.2, inplace=False)
  (dropout2): Dropout(p=0.3, inplace=False)
  (gate_nn): Sequential(
    (0): Linear(in_features=256, out_features=256, bias=True)
    (1): ReLU()
    (2): Linear(in_features=256, out_features=1, bias=True)
  )
  (att_pool): AttentionalAggregation(gate_nn=Sequential(
    (0): Linear(in_features=256, out_features=256, bias=True)
    (1): ReLU()
    (2): Linear(in_features=256, out_features=1, bias=True)
  ), nn=None)
  (conv_layers): ModuleList(
    (0): NNConv(11, 256, aggr=mean, nn=Sequential(
      (0): Linear(in_features=8, out_features=64, bias=True)
      (1): ReLU()
      (2): Linear(in_features=64, out_features=2816, bias=True)
    ))
    (1): NNConv(256, 512, aggr=mean, nn=Sequential(
      (0): Linear(in_features=8, out_features=128, bias=True)
      (1): ReLU()
      (2): Linear(in_features=128, out_features=131072, bias=True)
    ))
    (2): NNConv(512, 512, aggr=mean, nn=Sequential(
      (0): Linear(in_features=8, out_features=128, bias=True)
      (1): ReLU()
      (2): Linear(in_features=128, out_features=262144, bias=True)
    ))
    (3): NNConv(512, 256, aggr=mean, nn=Sequential(
      (0): Linear(in_features=8, out_features=64, bias=True)
      (1): ReLU()
      (2): Linear(in_features=64, out_features=131072, bias=True)
    ))
  )
  (norm_layers): ModuleList(
    (0): GraphNorm(256)
    (1-2): 2 x GraphNorm(512)
    (3): GraphNorm(256)
  )
  (linears): ModuleList(
    (0): Linear(in_features=267, out_features=256, bias=True)
    (1): Linear(in_features=256, out_features=128, bias=True)
  )
  (linear_norms): ModuleList(
    (0): LayerNorm(256, affine=True, mode=graph)
    (1): LayerNorm(128, affine=True, mode=graph)
  )
  (out): Linear(in_features=128, out_features=1, bias=True)
)
2025-12-12 16:03:03 | INFO | 

2025-12-12 16:03:10 | INFO | Settings used for this run
2025-12-12 16:03:10 | INFO | SEED ------------> 42
2025-12-12 16:03:10 | INFO | ARCH ------------> NNConv
2025-12-12 16:03:10 | INFO | TARGET_FEATURE_NAME ------------> conductivity
2025-12-12 16:03:10 | INFO | CHARGE_MODEL ------------> gasteiger
2025-12-12 16:03:10 | INFO | ADD_HS ------------> True
…
