…
2025-12-08 19:29:24 | INFO | Train: RMSE 10.431 ± 0.025 | MAE 6.271 ± 0.018 | R2 1.00 ± 0.00 | MARE 0.005 ± 0.000 | A20 1.00 ± 0.00
2025-12-08 19:29:24 | INFO | Valid: RMSE 11.643 ± 0.049 | MAE 6.441 ± 0.038 | R2 1.00 ± 0.00 | MARE 0.005 ± 0.000 | A20 1.00 ± 0.00
2025-12-08 19:29:24 | INFO | Test : RMSE 12.673 ± 0.030 | MAE 6.714 ± 0.023 | R2 0.99 ± 0.00 | MARE 0.005 ± 0.000 | A20 1.00 ± 0.00
2025-12-08 19:29:27 | INFO | NNConvModel(
  (dropout1): Dropout(p=0.2, inplace=False)
  (dropout2): Dropout(p=0.3, inplace=False)
  (conv_layers): ModuleList(
    (0): NNConv(11, 256, aggr=mean, nn=Sequential(
      (0): Linear(in_features=8, out_features=64, bias=True)
      (1): ReLU()
      (2): Linear(in_features=64, out_features=2816, bias=True)
    ))
    (1): NNConv(256, 512, aggr=mean, nn=Sequential(
      (0): Linear(in_features=8, out_features=128, bias=True)
      (1): ReLU()
      (2): Linear(in_features=128, out_features=131072, bias=True)
    ))
    (2): NNConv(512, 512, aggr=mean, nn=Sequential(
      (0): Linear(in_features=8, out_features=128, bias=True)
      (1): ReLU()
      (2): Linear(in_features=128, out_features=262144, bias=True)
    ))
    (3): NNConv(512, 256, aggr=mean, nn=Sequential(
      (0): Linear(in_features=8, out_features=64, bias=True)
      (1): ReLU()
      (2): Linear(in_features=64, out_features=131072, bias=True)
    ))
  )
  (norm_layers): ModuleList(
    (0): GraphNorm(256)
    (1-2): 2 x GraphNorm(512)
    (3): GraphNorm(256)
  )
  (linears): ModuleList(
    (0): Linear(in_features=268, out_features=256, bias=True)
    (1): Linear(in_features=256, out_features=128, bias=True)
  )
  (linear_norms): ModuleList(
    (0): LayerNorm(256, affine=True, mode=graph)
    (1): LayerNorm(128, affine=True, mode=graph)
  )
  (out): Linear(in_features=128, out_features=1, bias=True)
)
2025-12-08 19:29:27 | INFO | 

2025-12-08 19:29:28 | INFO | 

2025-12-08 19:29:28 | INFO | Architecture: NNConv, POOLING_METHOD: attention
2025-12-08 19:29:43 | INFO | Epoch 1 | Train Loss 0.311 | Train MAE 0.236 | Train R2 0.66 || Val Loss 0.127 | Val MAE 0.085 | Val R2 0.96
2025-12-08 19:31:48 | INFO | Epoch 10 | Train Loss 0.091 | Train MAE 0.065 | Train R2 0.98 || Val Loss 0.057 | Val MAE 0.036 | Val R2 0.99
…
Final evaluation for Model NNConv-attention (test_on_original_data=True)
2025-12-08 20:03:08 | INFO | Train: RMSE 10.022 ± 0.020 | MAE 6.408 ± 0.016 | R2 1.00 ± 0.00 | MARE 0.005 ± 0.000 | A20 1.00 ± 0.00
2025-12-08 20:03:08 | INFO | Valid: RMSE 11.332 ± 0.061 | MAE 6.759 ± 0.051 | R2 1.00 ± 0.00 | MARE 0.005 ± 0.000 | A20 1.00 ± 0.00
2025-12-08 20:03:08 | INFO | Test : RMSE 12.592 ± 0.053 | MAE 7.044 ± 0.050 | R2 0.99 ± 0.00 | MARE 0.006 ± 0.000 | A20 1.00 ± 0.00
2025-12-08 20:03:09 | INFO | NNConvModel(
  (dropout1): Dropout(p=0.2, inplace=False)
  (dropout2): Dropout(p=0.3, inplace=False)
  (gate_nn): Sequential(
    (0): Linear(in_features=256, out_features=256, bias=True)
    (1): ReLU()
    (2): Linear(in_features=256, out_features=1, bias=True)
  )
  (att_pool): AttentionalAggregation(gate_nn=Sequential(
    (0): Linear(in_features=256, out_features=256, bias=True)
    (1): ReLU()
    (2): Linear(in_features=256, out_features=1, bias=True)
  ), nn=None)
  (conv_layers): ModuleList(
    (0): NNConv(11, 256, aggr=mean, nn=Sequential(
      (0): Linear(in_features=8, out_features=64, bias=True)
      (1): ReLU()
      (2): Linear(in_features=64, out_features=2816, bias=True)
    ))
    (1): NNConv(256, 512, aggr=mean, nn=Sequential(
      (0): Linear(in_features=8, out_features=128, bias=True)
      (1): ReLU()
      (2): Linear(in_features=128, out_features=131072, bias=True)
    ))
    (2): NNConv(512, 512, aggr=mean, nn=Sequential(
      (0): Linear(in_features=8, out_features=128, bias=True)
      (1): ReLU()
      (2): Linear(in_features=128, out_features=262144, bias=True)
    ))
    (3): NNConv(512, 256, aggr=mean, nn=Sequential(
      (0): Linear(in_features=8, out_features=64, bias=True)
      (1): ReLU()
      (2): Linear(in_features=64, out_features=131072, bias=True)
    ))
  )
  (norm_layers): ModuleList(
    (0): GraphNorm(256)
    (1-2): 2 x GraphNorm(512)
    (3): GraphNorm(256)
  )
  (linears): ModuleList(
    (0): Linear(in_features=268, out_features=256, bias=True)
    (1): Linear(in_features=256, out_features=128, bias=True)
  )
  (linear_norms): ModuleList(
    (0): LayerNorm(256, affine=True, mode=graph)
    (1): LayerNorm(128, affine=True, mode=graph)
  )
  (out): Linear(in_features=128, out_features=1, bias=True)
)
2025-12-08 20:03:09 | INFO | 

2025-12-08 20:03:09 | INFO | Settings used for this run
2025-12-08 20:03:09 | INFO | SEED ------------> 42
2025-12-08 20:03:09 | INFO | ARCH ------------> NNConv
2025-12-08 20:03:09 | INFO | TARGET_FEATURE_NAME ------------> density
2025-12-08 20:03:09 | INFO | CHARGE_MODEL ------------> gasteiger
2025-12-08 20:03:09 | INFO | ADD_HS ------------> True
…
