…
2025-12-12 16:35:07 | INFO | Train: RMSE 0.003 ± 0.000 | MAE 0.002 ± 0.000 | R2 0.99 ± 0.00 | MARE 0.001 ± 0.000 | A20 1.00 ± 0.00
2025-12-12 16:35:07 | INFO | Valid: RMSE 0.005 ± 0.000 | MAE 0.002 ± 0.000 | R2 0.98 ± 0.00 | MARE 0.002 ± 0.000 | A20 1.00 ± 0.00
2025-12-12 16:35:07 | INFO | Test : RMSE 0.004 ± 0.000 | MAE 0.002 ± 0.000 | R2 0.99 ± 0.00 | MARE 0.002 ± 0.000 | A20 1.00 ± 0.00
2025-12-12 16:35:07 | INFO | NNConvModel(
  (dropout1): Dropout(p=0.2, inplace=False)
  (dropout2): Dropout(p=0.3, inplace=False)
  (conv_layers): ModuleList(
    (0): NNConv(11, 256, aggr=mean, nn=Sequential(
      (0): Linear(in_features=8, out_features=64, bias=True)
      (1): ReLU()
      (2): Linear(in_features=64, out_features=2816, bias=True)
    ))
    (1): NNConv(256, 512, aggr=mean, nn=Sequential(
      (0): Linear(in_features=8, out_features=128, bias=True)
      (1): ReLU()
      (2): Linear(in_features=128, out_features=131072, bias=True)
    ))
    (2): NNConv(512, 512, aggr=mean, nn=Sequential(
      (0): Linear(in_features=8, out_features=128, bias=True)
      (1): ReLU()
      (2): Linear(in_features=128, out_features=262144, bias=True)
    ))
    (3): NNConv(512, 256, aggr=mean, nn=Sequential(
      (0): Linear(in_features=8, out_features=64, bias=True)
      (1): ReLU()
      (2): Linear(in_features=64, out_features=131072, bias=True)
    ))
  )
  (norm_layers): ModuleList(
    (0): GraphNorm(256)
    (1-2): 2 x GraphNorm(512)
    (3): GraphNorm(256)
  )
  (linears): ModuleList(
    (0): Linear(in_features=268, out_features=256, bias=True)
    (1): Linear(in_features=256, out_features=128, bias=True)
  )
  (linear_norms): ModuleList(
    (0): LayerNorm(256, affine=True, mode=graph)
    (1): LayerNorm(128, affine=True, mode=graph)
  )
  (out): Linear(in_features=128, out_features=1, bias=True)
)
2025-12-12 16:35:07 | INFO | 

2025-12-12 16:35:08 | INFO | 

2025-12-12 16:35:08 | INFO | Architecture: NNConv, POOLING_METHOD: attention
2025-12-12 16:35:16 | INFO | Epoch 1 | Train Loss 0.403 | Train MAE 0.318 | Train R2 0.45 || Val Loss 0.253 | Val MAE 0.207 | Val R2 0.82
2025-12-12 16:36:20 | INFO | Epoch 10 | Train Loss 0.112 | Train MAE 0.084 | Train R2 0.97 || Val Loss 0.081 | Val MAE 0.053 | Val R2 0.98
…
Final evaluation for Model NNConv-attention (test_on_original_data=True)
2025-12-12 16:49:46 | INFO | Train: RMSE 0.003 ± 0.000 | MAE 0.002 ± 0.000 | R2 0.99 ± 0.00 | MARE 0.001 ± 0.000 | A20 1.00 ± 0.00
2025-12-12 16:49:46 | INFO | Valid: RMSE 0.004 ± 0.000 | MAE 0.002 ± 0.000 | R2 0.99 ± 0.00 | MARE 0.002 ± 0.000 | A20 1.00 ± 0.00
2025-12-12 16:49:46 | INFO | Test : RMSE 0.004 ± 0.000 | MAE 0.002 ± 0.000 | R2 0.99 ± 0.00 | MARE 0.002 ± 0.000 | A20 1.00 ± 0.00
2025-12-12 16:49:46 | INFO | NNConvModel(
  (dropout1): Dropout(p=0.2, inplace=False)
  (dropout2): Dropout(p=0.3, inplace=False)
  (gate_nn): Sequential(
    (0): Linear(in_features=256, out_features=256, bias=True)
    (1): ReLU()
    (2): Linear(in_features=256, out_features=1, bias=True)
  )
  (att_pool): AttentionalAggregation(gate_nn=Sequential(
    (0): Linear(in_features=256, out_features=256, bias=True)
    (1): ReLU()
    (2): Linear(in_features=256, out_features=1, bias=True)
  ), nn=None)
  (conv_layers): ModuleList(
    (0): NNConv(11, 256, aggr=mean, nn=Sequential(
      (0): Linear(in_features=8, out_features=64, bias=True)
      (1): ReLU()
      (2): Linear(in_features=64, out_features=2816, bias=True)
    ))
    (1): NNConv(256, 512, aggr=mean, nn=Sequential(
      (0): Linear(in_features=8, out_features=128, bias=True)
      (1): ReLU()
      (2): Linear(in_features=128, out_features=131072, bias=True)
    ))
    (2): NNConv(512, 512, aggr=mean, nn=Sequential(
      (0): Linear(in_features=8, out_features=128, bias=True)
      (1): ReLU()
      (2): Linear(in_features=128, out_features=262144, bias=True)
    ))
    (3): NNConv(512, 256, aggr=mean, nn=Sequential(
      (0): Linear(in_features=8, out_features=64, bias=True)
      (1): ReLU()
      (2): Linear(in_features=64, out_features=131072, bias=True)
    ))
  )
  (norm_layers): ModuleList(
    (0): GraphNorm(256)
    (1-2): 2 x GraphNorm(512)
    (3): GraphNorm(256)
  )
  (linears): ModuleList(
    (0): Linear(in_features=268, out_features=256, bias=True)
    (1): Linear(in_features=256, out_features=128, bias=True)
  )
  (linear_norms): ModuleList(
    (0): LayerNorm(256, affine=True, mode=graph)
    (1): LayerNorm(128, affine=True, mode=graph)
  )
  (out): Linear(in_features=128, out_features=1, bias=True)
)
2025-12-12 16:49:46 | INFO | 

2025-12-12 16:49:47 | INFO | Settings used for this run
2025-12-12 16:49:47 | INFO | SEED ------------> 42
2025-12-12 16:49:47 | INFO | ARCH ------------> NNConv
2025-12-12 16:49:47 | INFO | TARGET_FEATURE_NAME ------------> refractive_index
2025-12-12 16:49:47 | INFO | CHARGE_MODEL ------------> gasteiger
2025-12-12 16:49:47 | INFO | ADD_HS ------------> True
…
