…
2025-12-12 18:24:50 | INFO | Train: RMSE 8.887 ± 0.035 | MAE 5.342 ± 0.021 | R2 0.91 ± 0.00 | MARE 0.132 ± 0.001 | A20 0.86 ± 0.00
2025-12-12 18:24:50 | INFO | Valid: RMSE 9.429 ± 0.041 | MAE 5.636 ± 0.017 | R2 0.90 ± 0.00 | MARE 0.137 ± 0.001 | A20 0.84 ± 0.00
2025-12-12 18:24:50 | INFO | Test : RMSE 9.804 ± 0.067 | MAE 5.755 ± 0.018 | R2 0.89 ± 0.00 | MARE 0.140 ± 0.001 | A20 0.83 ± 0.00
2025-12-12 18:24:51 | INFO | NNConvModel(
  (dropout1): Dropout(p=0.2, inplace=False)
  (dropout2): Dropout(p=0.3, inplace=False)
  (conv_layers): ModuleList(
    (0): NNConv(11, 256, aggr=mean, nn=Sequential(
      (0): Linear(in_features=8, out_features=64, bias=True)
      (1): ReLU()
      (2): Linear(in_features=64, out_features=2816, bias=True)
    ))
    (1): NNConv(256, 512, aggr=mean, nn=Sequential(
      (0): Linear(in_features=8, out_features=128, bias=True)
      (1): ReLU()
      (2): Linear(in_features=128, out_features=131072, bias=True)
    ))
    (2): NNConv(512, 512, aggr=mean, nn=Sequential(
      (0): Linear(in_features=8, out_features=128, bias=True)
      (1): ReLU()
      (2): Linear(in_features=128, out_features=262144, bias=True)
    ))
    (3): NNConv(512, 256, aggr=mean, nn=Sequential(
      (0): Linear(in_features=8, out_features=64, bias=True)
      (1): ReLU()
      (2): Linear(in_features=64, out_features=131072, bias=True)
    ))
  )
  (norm_layers): ModuleList(
    (0): GraphNorm(256)
    (1-2): 2 x GraphNorm(512)
    (3): GraphNorm(256)
  )
  (linears): ModuleList(
    (0): Linear(in_features=268, out_features=256, bias=True)
    (1): Linear(in_features=256, out_features=128, bias=True)
  )
  (linear_norms): ModuleList(
    (0): LayerNorm(256, affine=True, mode=graph)
    (1): LayerNorm(128, affine=True, mode=graph)
  )
  (out): Linear(in_features=128, out_features=1, bias=True)
)
2025-12-12 18:24:51 | INFO | 

2025-12-12 18:24:51 | INFO | 

2025-12-12 18:24:51 | INFO | Architecture: NNConv, POOLING_METHOD: attention
2025-12-12 18:25:07 | INFO | Epoch 1 | Train Loss 0.668 | Train MAE 0.533 | Train R2 -0.04 || Val Loss 0.530 | Val MAE 0.432 | Val R2 0.32
2025-12-12 18:27:19 | INFO | Epoch 10 | Train Loss 0.254 | Train MAE 0.186 | Train R2 0.85 || Val Loss 0.217 | Val MAE 0.152 | Val R2 0.88
…
Final evaluation for Model NNConv-attention (test_on_original_data=True)
2025-12-12 18:54:51 | INFO | Train: RMSE 7.168 ± 0.033 | MAE 3.832 ± 0.015 | R2 0.94 ± 0.00 | MARE 0.082 ± 0.001 | A20 0.91 ± 0.00
2025-12-12 18:54:51 | INFO | Valid: RMSE 8.400 ± 0.023 | MAE 4.297 ± 0.023 | R2 0.92 ± 0.00 | MARE 0.090 ± 0.001 | A20 0.89 ± 0.00
2025-12-12 18:54:51 | INFO | Test : RMSE 8.584 ± 0.039 | MAE 4.313 ± 0.024 | R2 0.92 ± 0.00 | MARE 0.091 ± 0.001 | A20 0.89 ± 0.00
2025-12-12 18:54:51 | INFO | NNConvModel(
  (dropout1): Dropout(p=0.2, inplace=False)
  (dropout2): Dropout(p=0.3, inplace=False)
  (gate_nn): Sequential(
    (0): Linear(in_features=256, out_features=256, bias=True)
    (1): ReLU()
    (2): Linear(in_features=256, out_features=1, bias=True)
  )
  (att_pool): AttentionalAggregation(gate_nn=Sequential(
    (0): Linear(in_features=256, out_features=256, bias=True)
    (1): ReLU()
    (2): Linear(in_features=256, out_features=1, bias=True)
  ), nn=None)
  (conv_layers): ModuleList(
    (0): NNConv(11, 256, aggr=mean, nn=Sequential(
      (0): Linear(in_features=8, out_features=64, bias=True)
      (1): ReLU()
      (2): Linear(in_features=64, out_features=2816, bias=True)
    ))
    (1): NNConv(256, 512, aggr=mean, nn=Sequential(
      (0): Linear(in_features=8, out_features=128, bias=True)
      (1): ReLU()
      (2): Linear(in_features=128, out_features=131072, bias=True)
    ))
    (2): NNConv(512, 512, aggr=mean, nn=Sequential(
      (0): Linear(in_features=8, out_features=128, bias=True)
      (1): ReLU()
      (2): Linear(in_features=128, out_features=262144, bias=True)
    ))
    (3): NNConv(512, 256, aggr=mean, nn=Sequential(
      (0): Linear(in_features=8, out_features=64, bias=True)
      (1): ReLU()
      (2): Linear(in_features=64, out_features=131072, bias=True)
    ))
  )
  (norm_layers): ModuleList(
    (0): GraphNorm(256)
    (1-2): 2 x GraphNorm(512)
    (3): GraphNorm(256)
  )
  (linears): ModuleList(
    (0): Linear(in_features=268, out_features=256, bias=True)
    (1): Linear(in_features=256, out_features=128, bias=True)
  )
  (linear_norms): ModuleList(
    (0): LayerNorm(256, affine=True, mode=graph)
    (1): LayerNorm(128, affine=True, mode=graph)
  )
  (out): Linear(in_features=128, out_features=1, bias=True)
)
2025-12-12 18:54:51 | INFO | 

2025-12-12 18:54:52 | INFO | Settings used for this run
2025-12-12 18:54:52 | INFO | SEED ------------> 42
2025-12-12 18:54:52 | INFO | ARCH ------------> NNConv
2025-12-12 18:54:52 | INFO | TARGET_FEATURE_NAME ------------> viscosity
2025-12-12 18:54:52 | INFO | CHARGE_MODEL ------------> gasteiger
2025-12-12 18:54:52 | INFO | ADD_HS ------------> True
…
